…
    dense_out = tf.keras.layers.LayerNormalization(epsilon=1e-6)(x_ff2 + attn_output1 + lstm_out)  # 잔차 연결

    lstm_out2 = tf.keras.layers.LSTM(64)(dense_out)
    outputs = tf.keras.layers.Dense(1, activation='sigmoid')(lstm_out2)
    return tf.keras.models.Model(inputs, outputs)

    Model: "model"
    __________________________________________________________________________________________________
     Layer (type)                   Output Shape         Param #     Connected to
    ==================================================================================================
     input_1 (InputLayer)           [(None, 30, 23)]     0           []
    
     lstm (LSTM)                    (None, 30, 23)       4324        ['input_1[0][0]']
    
     layer_normalization (LayerNorm  (None, 30, 23)      46          ['lstm[0][0]']
     alization)
    
     multi_head_attention (MultiHea  (None, 30, 23)      24343       ['layer_normalization[0][0]',
     dAttention)                                                      'layer_normalization[0][0]']
    
     tf.__operators__.add (TFOpLamb  (None, 30, 23)      0           ['multi_head_attention[0][0]',
     da)                                                              'layer_normalization[0][0]']
    
     layer_normalization_1 (LayerNo  (None, 30, 23)      46          ['tf.__operators__.add[0][0]']
     rmalization)
    
     dense (Dense)                  (None, 30, 128)      3072        ['layer_normalization_1[0][0]']
    
     dense_1 (Dense)                (None, 30, 23)       2967        ['dense[0][0]']
    
     tf.__operators__.add_1 (TFOpLa  (None, 30, 23)      0           ['dense_1[0][0]',
     mbda)                                                            'multi_head_attention[0][0]']
    
     tf.__operators__.add_2 (TFOpLa  (None, 30, 23)      0           ['tf.__operators__.add_1[0][0]',
     mbda)                                                            'layer_normalization[0][0]']
    
     layer_normalization_2 (LayerNo  (None, 30, 23)      46          ['tf.__operators__.add_2[0][0]']
     rmalization)
    
     lstm_1 (LSTM)                  (None, 64)           22528       ['layer_normalization_2[0][0]']
    
     dense_2 (Dense)                (None, 1)            65          ['lstm_1[0][0]']
    
    ==================================================================================================
    Total params: 57,437
    Trainable params: 57,437
    Non-trainable params: 0
    __________________________________________________________________________________________________


    Epoch 1/100
    2024-12-22 19:51:57.197232: I tensorflow/stream_executor/cuda/cuda_dnn.cc:384] Loaded cuDNN version 8101
…
    dense_out = tf.keras.layers.LayerNormalization(epsilon=1e-6)(x_ff2)  # 잔차 연결

    # LSTM 계층
    lstm_out = tf.keras.layers.LSTM(64)(dense_out)

    # 출력 계층
    output = tf.keras.layers.Dense(1, activation='sigmoid')(lstm_out)

    return tf.keras.models.Model(inputs, output)
    __________________________________________________________________________________________________
    Layer (type)                   Output Shape         Param #     Connected to
   ==================================================================================================
    input_1 (InputLayer)           [(None, 30, 23)]     0           []
   
    position_encoding (PositionEnc  (None, 30, 23)      0           ['input_1[0][0]']
    oding)
   
    multi_head_attention (MultiHea  (None, 30, 23)      24343       ['position_encoding[0][0]',
    dAttention)                                                      'position_encoding[0][0]']
   
    layer_normalization (LayerNorm  (None, 30, 23)      46          ['multi_head_attention[0][0]']
    alization)
   
    dense (Dense)                  (None, 30, 128)      3072        ['layer_normalization[0][0]']
   
    dense_1 (Dense)                (None, 30, 23)       2967        ['dense[0][0]']
   
    layer_normalization_1 (LayerNo  (None, 30, 23)      46          ['dense_1[0][0]']
    rmalization)
   
    lstm (LSTM)                    (None, 64)           22528       ['layer_normalization_1[0][0]']
   
    dense_2 (Dense)                (None, 1)            65          ['lstm[0][0]']
   
   ==================================================================================================
   Total params: 53,067


   None
   Epoch 1/100
   2024-12-23 10:39:52.686899: I tensorflow/stream_executor/cuda/cuda_blas.cc:1614] TensorFloat-32 will be used for the matrix multiplication. This will only be logged once.
   2024-12-23 10:39:54.506554: I tensorflow/stream_executor/cuda/cuda_dnn.cc:384] Loaded cuDNN version 8101
…
    # lstm_out = tf.keras.layers.GlobalMaxPooling1D()(dense_out)  # 시퀀스 차원을 축소
    output = tf.keras.layers.Dense(1, activation='sigmoid')(lstm_out)

    return tf.keras.models.Model(inputs, output)


    Model: "model"
    __________________________________________________________________________________________________
     Layer (type)                   Output Shape         Param #     Connected to
    ==================================================================================================
     input_1 (InputLayer)           [(None, 30, 23)]     0           []
    
     position_encoding (PositionEnc  (None, 30, 23)      0           ['input_1[0][0]']
     oding)
    
     multi_head_attention (MultiHea  (None, 30, 23)      48663       ['position_encoding[0][0]',
     dAttention)                                                      'position_encoding[0][0]']
    
     tf.__operators__.add (TFOpLamb  (None, 30, 23)      0           ['multi_head_attention[0][0]',
     da)                                                              'position_encoding[0][0]']
    
     layer_normalization (LayerNorm  (None, 30, 23)      46          ['tf.__operators__.add[0][0]']
     alization)
    
     dense (Dense)                  (None, 30, 128)      3072        ['layer_normalization[0][0]']
    
     dense_1 (Dense)                (None, 30, 23)       2967        ['dense[0][0]']
    
     tf.__operators__.add_1 (TFOpLa  (None, 30, 23)      0           ['dense_1[0][0]',
     mbda)                                                            'multi_head_attention[0][0]']
    
     tf.__operators__.add_2 (TFOpLa  (None, 30, 23)      0           ['tf.__operators__.add_1[0][0]',
     mbda)                                                            'position_encoding[0][0]']
    
     layer_normalization_1 (LayerNo  (None, 30, 23)      46          ['tf.__operators__.add_2[0][0]']
     rmalization)
    
     lstm (LSTM)                    (None, 64)           22528       ['layer_normalization_1[0][0]']
    
     dense_2 (Dense)                (None, 1)            65          ['lstm[0][0]']
    
    ==================================================================================================
    Total params: 77,387
    Trainable params: 77,387
    Non-trainable params: 0
    __________________________________________________________________________________________________
    None
    callback path: C:\code\python\autohunting\model\model_checkpoint8.h5

…
